…
batch_size: 32
calc_scores: softmax
classes: 40
dist_backend: nccl
dist_url: tcp://127.0.0.1:59719
distributed: True
dropout: 0.5
epochs: 350
eval: False
exp_name: dgcnn_paconv_train
gpu: [0, 1, 2, 3, 4, 5, 6, 7]
k_neighbors: 20
lr: 0.1
manual_seed: 0
momentum: 0.9
multiprocessing_distributed: True
ngpus_per_node: 8
no_cuda: False
num_matrices: [8, 8, 8, 8]
num_points: 1024
print_freq: 10
pt_norm: False
rank: 0
sync_bn: True
test_batch_size: 16
workers: 6
world_size: 8
[2022-07-04 08:24:22,109 INFO main_ddp.py line 104 164] PAConv(
  (scorenet1): ScoreNet(
    (mlp_convs_hidden): ModuleList(
      (0): Conv2d(6, 16, kernel_size=(1, 1), stride=(1, 1), bias=False)
      (1): Conv2d(16, 8, kernel_size=(1, 1), stride=(1, 1))
    )
    (mlp_bns_hidden): ModuleList(
      (0): BatchNorm2d(16, eps=1e-05, momentum=0.1, affine=True, track_running_stats=True)
      (1): BatchNorm2d(8, eps=1e-05, momentum=0.1, affine=True, track_running_stats=True)
    )
  )
  (scorenet2): ScoreNet(
    (mlp_convs_hidden): ModuleList(
      (0): Conv2d(6, 16, kernel_size=(1, 1), stride=(1, 1), bias=False)
      (1): Conv2d(16, 8, kernel_size=(1, 1), stride=(1, 1))
    )
    (mlp_bns_hidden): ModuleList(
      (0): BatchNorm2d(16, eps=1e-05, momentum=0.1, affine=True, track_running_stats=True)
      (1): BatchNorm2d(8, eps=1e-05, momentum=0.1, affine=True, track_running_stats=True)
    )
  )
  (scorenet3): ScoreNet(
    (mlp_convs_hidden): ModuleList(
      (0): Conv2d(6, 16, kernel_size=(1, 1), stride=(1, 1), bias=False)
      (1): Conv2d(16, 8, kernel_size=(1, 1), stride=(1, 1))
    )
    (mlp_bns_hidden): ModuleList(
      (0): BatchNorm2d(16, eps=1e-05, momentum=0.1, affine=True, track_running_stats=True)
      (1): BatchNorm2d(8, eps=1e-05, momentum=0.1, affine=True, track_running_stats=True)
    )
  )
  (scorenet4): ScoreNet(
    (mlp_convs_hidden): ModuleList(
      (0): Conv2d(6, 16, kernel_size=(1, 1), stride=(1, 1), bias=False)
      (1): Conv2d(16, 8, kernel_size=(1, 1), stride=(1, 1))
    )
    (mlp_bns_hidden): ModuleList(
      (0): BatchNorm2d(16, eps=1e-05, momentum=0.1, affine=True, track_running_stats=True)
      (1): BatchNorm2d(8, eps=1e-05, momentum=0.1, affine=True, track_running_stats=True)
    )
  )
  (bn1): BatchNorm1d(64, eps=1e-05, momentum=0.1, affine=True, track_running_stats=True)
  (bn2): BatchNorm1d(64, eps=1e-05, momentum=0.1, affine=True, track_running_stats=True)
  (bn3): BatchNorm1d(128, eps=1e-05, momentum=0.1, affine=True, track_running_stats=True)
  (bn4): BatchNorm1d(256, eps=1e-05, momentum=0.1, affine=True, track_running_stats=True)
  (bn5): BatchNorm1d(1024, eps=1e-05, momentum=0.1, affine=True, track_running_stats=True)
  (conv5): Sequential(
    (0): Conv1d(512, 1024, kernel_size=(1,), stride=(1,), bias=False)
    (1): BatchNorm1d(1024, eps=1e-05, momentum=0.1, affine=True, track_running_stats=True)
  )
  (linear1): Linear(in_features=2048, out_features=512, bias=False)
  (bn11): BatchNorm1d(512, eps=1e-05, momentum=0.1, affine=True, track_running_stats=True)
  (dp1): Dropout(p=0.5, inplace=False)
  (linear2): Linear(in_features=512, out_features=256, bias=False)
  (bn22): BatchNorm1d(256, eps=1e-05, momentum=0.1, affine=True, track_running_stats=True)
  (dp2): Dropout(p=0.5, inplace=False)
  (linear3): Linear(in_features=256, out_features=40, bias=True)
)
[2022-07-04 08:24:30,034 INFO main_ddp.py line 137 164] Use SGD
[2022-07-04 08:24:37,600 INFO main_ddp.py line 235 164] Epoch: [1/350][10/307] Data 0.002 (0.331) Batch 0.206 (0.756) Forward 0.038 (0.231) Backward 0.162 (0.192) Remain 22:34:21 Loss 3.8512 
[2022-07-04 08:24:39,665 INFO main_ddp.py line 235 164] Epoch: [1/350][20/307] Data 0.002 (0.167) Batch 0.204 (0.481) Forward 0.038 (0.135) Backward 0.161 (0.177) Remain 14:22:01 Loss 4.0004 
…
