…
batch_size: 32
calc_scores: softmax
classes: 40
dist_backend: nccl
dist_url: tcp://127.0.0.1:56707
distributed: True
dropout: 0.5
epochs: 350
eval: False
exp_name: pointnet_paconv_train
gpu: [0, 1, 2, 3, 4, 5, 6, 7]
k_neighbors: 30
lr: 0.1
manual_seed: 0
momentum: 0.9
multiprocessing_distributed: True
ngpus_per_node: 8
no_cuda: False
num_matrices: [8, 8, 8]
num_points: 1024
print_freq: 10
pt_norm: False
rank: 0
sync_bn: True
test_batch_size: 16
workers: 6
world_size: 8
[2022-07-05 01:46:24,309 INFO main_ddp.py line 104 175] PAConv(
  (scorenet2): ScoreNet(
    (mlp_convs_hidden): ModuleList(
      (0): Conv2d(6, 16, kernel_size=(1, 1), stride=(1, 1), bias=False)
      (1): Conv2d(16, 8, kernel_size=(1, 1), stride=(1, 1))
    )
    (mlp_bns_hidden): ModuleList(
      (0): BatchNorm2d(16, eps=1e-05, momentum=0.1, affine=True, track_running_stats=True)
      (1): BatchNorm2d(8, eps=1e-05, momentum=0.1, affine=True, track_running_stats=True)
    )
  )
  (scorenet3): ScoreNet(
    (mlp_convs_hidden): ModuleList(
      (0): Conv2d(6, 16, kernel_size=(1, 1), stride=(1, 1), bias=False)
      (1): Conv2d(16, 8, kernel_size=(1, 1), stride=(1, 1))
    )
    (mlp_bns_hidden): ModuleList(
      (0): BatchNorm2d(16, eps=1e-05, momentum=0.1, affine=True, track_running_stats=True)
      (1): BatchNorm2d(8, eps=1e-05, momentum=0.1, affine=True, track_running_stats=True)
    )
  )
  (scorenet4): ScoreNet(
    (mlp_convs_hidden): ModuleList(
      (0): Conv2d(6, 16, kernel_size=(1, 1), stride=(1, 1), bias=False)
      (1): Conv2d(16, 8, kernel_size=(1, 1), stride=(1, 1))
    )
    (mlp_bns_hidden): ModuleList(
      (0): BatchNorm2d(16, eps=1e-05, momentum=0.1, affine=True, track_running_stats=True)
      (1): BatchNorm2d(8, eps=1e-05, momentum=0.1, affine=True, track_running_stats=True)
    )
  )
  (bn1): BatchNorm1d(64, eps=1e-05, momentum=0.1, affine=True, track_running_stats=True)
  (bn2): BatchNorm1d(64, eps=1e-05, momentum=0.1, affine=True, track_running_stats=True)
  (bn3): BatchNorm1d(64, eps=1e-05, momentum=0.1, affine=True, track_running_stats=True)
  (bn4): BatchNorm1d(128, eps=1e-05, momentum=0.1, affine=True, track_running_stats=True)
  (bn5): BatchNorm1d(1024, eps=1e-05, momentum=0.1, affine=True, track_running_stats=True)
  (conv1): Conv1d(3, 64, kernel_size=(1,), stride=(1,), bias=False)
  (conv5): Conv1d(128, 1024, kernel_size=(1,), stride=(1,), bias=False)
  (linear1): Linear(in_features=1024, out_features=512, bias=False)
  (bn6): BatchNorm1d(512, eps=1e-05, momentum=0.1, affine=True, track_running_stats=True)
  (dp1): Dropout(p=0.5, inplace=False)
  (linear2): Linear(in_features=512, out_features=40, bias=True)
)
[2022-07-05 01:46:32,395 INFO main_ddp.py line 137 175] Use SGD
[2022-07-05 01:46:39,049 INFO main_ddp.py line 235 175] Epoch: [1/350][10/307] Data 0.002 (0.317) Batch 0.149 (0.665) Forward 0.030 (0.198) Backward 0.113 (0.145) Remain 19:51:12 Loss 4.7540 
[2022-07-05 01:46:40,531 INFO main_ddp.py line 235 175] Epoch: [1/350][20/307] Data 0.002 (0.159) Batch 0.149 (0.407) Forward 0.031 (0.114) Backward 0.113 (0.129) Remain 12:08:13 Loss 6.6762 
…
